dqn_model.pth (torch, 30951 bytes, 6 tensors)

fc1.weight f4 [64, 1]
00000000: 0425 293e 5950 adbf d8ae 863e 5d2d 083f
00000010: 91f9 593f 83ba 0e3f cad1 693f 8321 3f3f
00000020: f455 79bf 29c4 883d 32b4 463f 94c5 383f
00000030: 4942 6fbf 3a50 2bbf 189b 58bf fcb9 a9be
00000040: 581f 3dbf 1aba 013e f94f 1e3e cb86 ca3e
00000050: 20fb b9be b5aa 0d3e f7a8 333e c8a1 79be
00000060: 382a 4bbf 9d22 f63e a235 27bf b3a2 ee3e
00000070: 8268 73bf 06f2 1cbe d825 13bf 52f5 643f
00000080: bde3 f23e 3abc 89be ac07 38bf 9969 45be
00000090: 6034 7bbe 8d2c 133e cbf5 15bf a8db 943d
000000a0: 8f75 2ebe a045 483f d30f df3e fc03 80be
000000b0: 96e7 523f 4025 e6be 3495 fc3e 764c cdbe
000000c0: 8b26 823f a1f8 253f c1a8 133f 3060 86bf
000000d0: 2065 943d b00c bf3c f80e 62bf 6b8c b9be
000000e0: 6253 9fbd 4e5f a93e 725f 06bf e004 41bd
000000f0: 6ca4 fbbd 6650 693f f690 6cbf ee5f 74bf
0.16518027 -1.3540145 0.2630527 0.5319422 0.85146433 0.55753344 0.9133574 0.7466051
-0.9739678 0.066780396 0.77618706 0.7217648 -0.9346052 -0.6691929 -0.84611654 -0.33149707
-0.7387595 0.12668648 0.15460195 0.39555964 -0.36324406 0.13834651 0.17544924 -0.24378121
-0.79361296 0.48073283 -0.6531621 0.46608505 -0.9508134 -0.153267 -0.5747962 0.8943683
0.47439376 -0.26901418 -0.71886706 -0.19278564 -0.24531698 0.14372464 -0.58578175 0.072684586
-0.17037033 0.7823124 0.4356676 -0.2500304 0.8238462 -0.44950294 0.49332583 -0.40097398
1.0168012 0.648325 0.57679373 -1.0498104 0.072458506 0.02332148 -0.8830409 -0.36239943
-0.07779576 0.33080524 -0.5248939 -0.04712379 -0.1228722 0.91138303 -0.9240869 -0.9545888

fc1.bias f4 [64]
00000000: 19f0 4842 049a 4a42 a7dd 4c42 c10b 4b42
00000010: 4abd 4a42 4320 4a42 d85a 4b42 2e5f 4d42
00000020: 10ec 33bf 430b 33bf 3cfc 4942 a038 4842
00000030: 041a 4b42 9728 4a42 8637 4c42 0092 22bc
00000040: 395b 4a42 1f9d 4c42 d34c 4b42 e809 4642
00000050: 487f 66bf bada 4542 2f4d 4642 80bc 2ebd
00000060: 8425 d1be 6a69 4742 f06b 9abd 1c62 4942
00000070: 90ab 4bbf 27ea 4c42 0c70 38bf ec6b 4942
00000080: 6435 4c42 57b2 4b42 1e8d 33bf 1ebc 4c42
00000090: 380b 71bf 9b66 4c42 0eac 4d42 b1d9 4742
000000a0: fa7f 4c42 6efd 4942 379c 4742 64a4 4942
000000b0: 2e43 4642 a6e5 17bf 6a86 4b42 33f0 4b42
000000c0: 3d4c 4c42 fec4 4942 3f95 4b42 7790 4a42
000000d0: 86c1 2bbf 5422 4d42 02fa 2ebf 6ba9 4a42
000000e0: 9f0b 4c42 402b 4942 7056 58bf 88ef 0bbf
000000f0: a7a4 4a42 4438 4842 6a3e 4b42 0070 c8bc
50.23447 50.650406 51.216457 50.76148 50.684853 50.531506 50.838715 51.34295
-0.7028208 -0.6993906 50.496323 50.055298 50.775406 50.53964 51.054222 -0.009922504
50.589085 51.15344 50.825024 49.509674 -0.90037966 49.4636 49.575375 -0.042660236
-0.40848935 49.852943 -0.07540119 50.34581 -0.7955866 51.228664 -0.7204597 50.355392
51.05214 50.92416 -0.701372 51.18371 -0.94157743 51.1002 51.418022 49.96259
51.124977 50.49749 49.902554 50.410538 49.565605 -0.5933479 50.881264 50.98457
51.07445 50.442375 50.89575 50.64108 -0.6709217 51.283524 -0.6835023 50.665447
51.01135 50.292236 -0.84506893 -0.5466237 50.660793 50.054947 50.81095 -0.024467468

fc2.weight f4 [64, 64]
00000000: e149 3c42 29f1 4242 cec6 3c42 eb90 3b42
00000010: fd13 3a42 7a02 3b42 ef3a 3a42 a469 3b42
00000020: 642a 75bd 846e 0a3d b21a 3a42 0b78 3a42
00000030: d42c 4142 f963 4042 e084 4142 d0ed b3bd
00000040: 0a8b 4042 c77f 3c42 02bb 3c42 39d1 3a42
00000050: 0a84 e4bd a232 3c42 793a 3c42 fcb3 453d
00000060: 0c8e 04bd 5125 3b42 2ceb e93d af7d 3b42
00000070: 38ba 6cbd ec35 3e42 8cc0 ae3d 32ed 3942
00000080: 2c10 3c42 10b6 3e42 0000 1fba 0768 3e42
00000090: 8043 5ebb 74ff 3c42 b005 4042 1905 3d42
000000a0: e03d 3e42 0f98 3a42 16ed 3a42 8bcf 3e42
000000b0: ede6 3942 8a7c c53d f7aa 3b42 c486 3f42
000000c0: 6b3c 3a42 f98f 3a42 1d4c 3b42 5961 4242
000000d0: 28f1 bfbc 94de 3d42 c2d3 ba3d 8fc9 3e42
000000e0: 2840 3e42 c9eb 3b42 28e7 09bd 94a9 c4bd
000000f0: 0940 3e42 4fd2 3942 ecf3 4142 803b 1a3d
00000100: 5578 3c42 d21a 4342 ce05 3d42 8a70 3b42
00000110: 52f1 3a42 2ad5 3b42 1ced 3a42 df82 3b42
00000120: 8c67 f13d b9ca 4c3d a17b 3a42 3172 3a42
00000130: 9f82 4142 2564 4042 4ca5 4142 96ff 953d
00000140: d808 4142 1407 3d42 0efd 3c42 db53 3b42
00000150: a018 bcbc 72d2 3c42 cbcd 3c42 5e3e ddbd
00000160: 0073 f63b 4b33 3b42 c07d 92bc a5df 3b42
00000170: 1066 56bd 54a5 3e42 c415 283d e1ce 3942
00000180: a954 3c42 6c8b 3e42 c829 743d 1cc4 3e42
00000190: 0094 1b39 3650 3d42 0c16 4042 eb6f 3d42
000001a0: 8b0c 3e42 f940 3a42 5367 3b42 82eb 3e42
000001b0: 0864 3a42 54c6 e03d cff9 3b42 8430 3f42
000001c0: 6053 3a42 8ee9 3a42 47ca 3b42 8c6b 4242
000001d0: 10fd b4bd 5a21 3d42 08ee 88bd e90c 3f42
000001e0: adf2 3d42 938d 3c42 4671 d6bd 98ef f63d
000001f0: 4ec9 3d42 bb3d 3a42 6d3d 4142 6085 8d3d
00000200: 4606 88bd 4e84 90bd 30f2 783d 90fe 333d
00000210: def6 b7bd 0c51 3e3d 8a96 f4bd b880 ecbc
00000220: d490 373d 48f4 523d c8f0 93bc f2cc ecbd
00000230: 88e3 f33d 0a9b 94bd 3459 a43d aca3 3bbd
00000240: 6ce4 da3d 8456 3abd 1cb5 363d aafd a73d
00000250: 3a7c bcbd 98ea dfbc 4062 243b 889d cebd
00000260: 98e4 0abd 6831 2e3d 225a a43d aa77 febd
00000270: 884a 913c 34b7 fbbd e811 463d 6c2a 6f3d
00000280: 7ade c8bd 5219 d8bd 9400 45bd 0859 ec3c
00000290: 40ea 72bb a459 0b3d 90c3 453c f2ec f9bd
000002a0: 94a5 c43d 805c ecbb 88bc e8bc a45e 5e3d
000002b0: 3093 533c 9009 a9bd 3407 8cbd e02c f4bc
000002c0: f0d3 33bd 9cbd b0bd d8bd 4c3d 989f 8bbc
000002d0: 207d c3bb 263e 853d 0a89 e43d 50a8 e4bc
000002e0: 8c98 1abd c25b b73d 9026 003d 141e d53d
000002f0: 442a 41bd c61f c2bd c0fb 983b 5429 6fbd
00000300: ad6a 3c42 03de 4242 3419 3d42 6401 3c42
00000310: 190e 3b42 4a42 3b42 42a1 3a42 3074 3b42
00000320: 84e2 0d3d 8e76 a23d b9ac 3a42 62ed 3a42
00000330: ea58 4142 6ec7 4042 9c54 4142 d4bf 0a3d
00000340: 1947 4142 11fb 3c42 34c2 3c42 f9b4 3b42
00000350: d8a9 bf3d 77cc 3c42 6d9e 3c42 f6d9 e33d
00000360: 6047 463d 8341 3b42 387e 5f3d 2c8f 3b42
00000370: 4a3a a63d 9514 3e42 7233 acbd e68c 3a42
00000380: 2045 3c42 d518 3f42 908b 67bc 6cb3 3e42
00000390: a492 dbbd d65f 3d42 3fbf 3f42 a9cf 3c42
000003a0: 85d0 3d42 9da1 3a42 b504 3c42 9315 3f42
000003b0: 084b 3a42 5c88 20bd 9505 3c42 5bfc 3e42
000003c0: 6ead 3a42 4b0d 3b42 20a3 3b42 5ca7 4142
000003d0: 1c81 13bd 53ee 3d42 6ce1 ddbd 9033 3f42
000003e0: c651 3e42 7c2c 3c42 42f8 af3d 0021 913c
000003f0: 1a0f 3e42 2b80 3a42 b2ce 4142 4af1 c6bd
47.072147 48.735508 47.194145 46.89152 46.51952 46.75242 46.557552 46.853165
-0.05985488 0.033796802 46.52607 46.61723 48.293777 48.09763 48.37976 -0.087855935
48.13578 47.124783 47.182625 46.70432 -0.11157997 47.049446 47.057102 0.04826735
-0.03236203 46.78644 0.114218086 46.872738 -0.05779478 47.552658 0.08532819 46.481636
47.015793 47.677795 -0.00060653687 47.60159 -0.0033914745 47.249466 48.005554 47.25498
47.560425 46.648495 46.73153 47.70268 46.475513 0.096428946 46.916958 47.881607
46.559002 46.6406 46.82433 48.595066 -0.023430422 47.46736 0.09122421 47.696835
47.562653 46.98026 -0.033667713 -0.09602657 47.562534 46.45538 48.488205 0.0376544
47.11751 48.77619 47.25567 46.8599 46.735664 46.958168 46.731552 46.877804
0.11787328 0.04999802 46.62073 46.611515 48.37756 48.097797 48.411423 0.0732414
48.258636 47.256912 47.247124 46.83189 -0.02296096 47.205513 47.20097 -0.10802911
0.0075210333 46.80009 -0.017882228 46.968403 -0.052343428 47.661453 0.041036382 46.45203
47.082676 47.636154 0.05961016 47.691513 0.00014837086 47.32833 48.02153 47.359295
47.51225 46.56345 46.850903 47.72999 46.597687 0.10975328 46.993954 47.79738
46.58142 46.72808 46.947536 48.605026 -0.0883733 47.28257 -0.06686026 47.762608
47.486988 47.138256 -0.10470824 0.12057418 47.446587 46.560284 48.309986 0.06910205
-0.066418216 -0.07056485 0.060777843 0.04394394 -0.08982633 0.04646401 -0.119427755 -0.028869972
0.044815853 0.051502496 -0.01805915 -0.11562528 0.119086325 -0.07256134 0.08024827 -0.045810387
0.10688099 -0.045492664 0.044606313 0.082026795 -0.09203382 -0.027333543 0.0025082976 -0.100886405
-0.03390941 0.042527586 0.08025004 -0.12425168 0.017735735 -0.122908026 0.04835692 0.058390066
-0.09808059 -0.105517045 -0.048096254 0.028851047 -0.0037065893 0.034021035 0.0120705515 -0.12203397
0.09601894 -0.0072131753 -0.028410211 0.054289475 0.01291351 -0.08253777 -0.068373114 -0.029806554
-0.04390329 -0.08629915 0.049985737 -0.017043874 -0.005965844 0.065059945 0.111589506 -0.027912289
-0.037743136 0.08953048 0.031286776 0.104061276 -0.04715945 -0.094787166 0.004668683 -0.058389023
47.104176 48.71681 47.274612 47.001358 46.763767 46.814735 46.65748 46.863464
0.03463985 0.07932769 46.668674 46.73182 48.33683 48.194756 48.332626 0.033874348
48.31943 47.245182 47.18965 46.92673 0.09358567 47.199673 47.154713 0.11125557
0.048407912 46.813976 0.05456373 46.889816 0.081165865 47.5201 -0.0840825 46.637596
47.067505 47.77425 -0.014132395 47.675217 -0.10721329 47.34359 47.936764 47.202793
47.453632 46.657825 47.004597 47.77107 46.573273 -0.039192542 47.00545 47.74644
46.669365 46.76298 46.9093 48.413437 -0.0360118 47.48274 -0.108340114 47.800354
47.579857 47.04344 0.08592273 0.017715931 47.514748 46.625164 48.45185 -0.09713991

fc2.bias f4 [64]
00000000: b368 3e42 0006 3f42 5045 763d 8a47 3e42
00000010: d2ab 81bd 7371 3e42 04d0 6abd 67a7 3e42
00000020: 40a7 3e42 b86d ae3c 66ca 3e42 0271 3e42
00000030: c662 e5bd 6101 3f42 56a6 3e42 8c25 37bd
00000040: 03fa 3e42 b80e 3f42 cfd7 3e42 0b64 72bd
00000050: dc21 3f42 8470 593d 8bbb 3e42 0014 483a
00000060: 4ba8 c2bd fc35 3e42 024a 3e42 a46d 79bd
00000070: e7f9 3e42 5180 3e42 068d 873b f5af 3e42
00000080: ea6c 3e42 4a82 8c3d 7778 3e42 0e1e 3f42
00000090: 9c7a 3e42 7730 3e42 9c01 1b3d 1bcc 91bd
000000a0: 0bbb 3e42 24eb 3e42 a686 3e42 36cc ef3d
000000b0: c78e 3e42 0ad6 8a3d 0040 28b9 40c2 b33b
000000c0: 5853 ce3c 722d 3e42 b39e 3e42 682c 5b3d
000000d0: 62ea 3e42 8edc 80bd 8a71 f0bd ee34 3e42
000000e0: 6d1d 3f42 8cc3 3e42 21bc fd3b 3012 66bd
000000f0: 1f81 3e42 5830 54bd 29d0 3e42 aa82 e3bb
47.602245 47.75586 0.060124695 47.569862 -0.063316 47.61079 -0.057327285 47.66348
47.66333 0.021292552 47.697655 47.61036 -0.1120048 47.751347 47.662437 -0.044713542
47.744152 47.764374 47.71075 -0.05917744 47.783066 0.05308582 47.683147 0.0007632375
-0.095047556 47.55272 47.572273 -0.060895577 47.744045 47.62531 0.0041366844 47.671833
47.60636 0.06860788 47.61764 47.77935 47.619736 47.54733 0.03784333 -0.07119008
47.68266 47.72963 47.631493 0.11708872 47.63943 0.06779106 -0.0001604557 0.005485803
0.025186226 47.54438 47.65498 0.053509146 47.72889 -0.062920675 -0.11740406 47.55169
47.778736 47.690964 0.007743374 -0.05616969 47.626095 -0.051803917 47.70328 -0.0069430666

fc3.weight f4 [45, 64]
00000000: 830f 4a41 8630 4c41 1aa0 febd f2a5 4b41
00000010: cc77 da3d 2a0a 4d41 a01f 51bd 87c6 4941
00000020: 2042 4c41 ea59 a7bd 329b 4941 643e 4c41
00000030: 1072 503d 4796 4b41 c84b 4c41 b4cd 6b3d
00000040: 8045 4c41 b172 4c41 785c 4c41 c20a 053d
00000050: 3a28 4b41 b4b5 98bd 1362 4c41 96bc 8a3d
00000060: 696f 96bd ba49 4941 70e8 4941 bdeb c13d
00000070: a713 4b41 f34d 4b41 9456 0d3d dda4 4941
00000080: 026a 4c41 a35a f03d b5f2 4a41 8a3f 4941
00000090: 7e29 4b41 2108 4941 d400 803d 5c04 f33d
000000a0: 2cba 4941 d36b 4b41 8d32 4941 406d 8b3d
000000b0: 35a9 4a41 34e1 ea3d 4075 cfbc 48e3 283d
000000c0: fade af3d 3132 4d41 c7b0 4c41 c00c 723b
000000d0: a04f 4b41 c02a e8bc 178a 833d 6634 4b41
000000e0: 7e96 4941 9374 4c41 1a2e 023e 361a d6bd
000000f0: 14e2 4c41 fa4d f23d deab 4941 9ccd b1bd
00000100: 4e25 5241 f686 4f41 8831 25bd 6337 5041
00000110: 50a7 59bc e209 5041 f4d6 57bd bc6c 4f41
00000120: bad9 4f41 eae3 8f3d 7692 5041 a9ef 5141
00000130: 7004 c5bd 7b73 4f41 f9f5 4e41 c070 75bd
00000140: 4938 4f41 5728 4f41 aa02 5241 d570 c3bd
00000150: a700 5241 80a1 0bbb f495 5041 7260 debd
00000160: 5ba0 eb3d cc3c 5141 8561 5141 a812 b93d
00000170: 776b 5141 62a1 5041 14c0 db3d 5b0d 5241
00000180: 948e 5041 9acd 743d 7c3d 4f41 6631 4f41
00000190: 7e7b 5041 7fdd 5141 8676 9b3d b639 dabd
000001a0: 5208 5241 65cc 4e41 03a1 4f41 2a57 abbd
000001b0: a366 5041 5cc7 edbd 36b9 fe3d c492 f03d
000001c0: 74b7 0cbd c1d1 4f41 ab95 4f41 702a c3bd
000001d0: e43c 5141 f00b 263d 9d29 bbbd 5af7 5241
000001e0: b942 5241 56e4 5241 b888 89bd 2ec9 a93d
000001f0: c052 5241 f69d d43d 03e1 5041 8dfa 84bd
00000200: c85e 5141 5fb5 5241 4ecf c13d 24ec 5241
00000210: f449 cfbd 2dcc 5141 a816 b5bd 27e5 5041
00000220: f842 5141 7847 efbc 7f87 5041 4f1b 5441
00000230: b614 c43d aa54 5141 e904 5241 1c79 ae3d
00000240: 42a5 5241 5748 5241 4826 5141 2649 d5bd
00000250: 79c1 5241 08ff 43bd 71ed 5241 3ed9 c0bd
00000260: 6a17 5d3c 9441 5341 34c9 5341 043b e43b
00000270: ee0d 5241 1413 5041 7091 f13d 5763 5441
00000280: 09f4 5341 e9f7 463d c424 5041 cd52 5241
00000290: afe4 5341 ac7b 5241 a08c cf3d 4595 a3bc
000002a0: 8df1 5041 8e93 5241 2add 5241 8812 a63c
000002b0: 503c 5341 0217 aa3d e674 f93d 800a 42bd
000002c0: 14ff 4dbd d7c7 5341 4743 5041 18ad fdbc
000002d0: ef5d 5041 6422 5abd 79f4 7b3d 22a5 5141
000002e0: 6d8f 5141 1641 5241 71ec e83d 5e67 fa3d
000002f0: 517b 5341 3cf9 d83d 6a4a 5441 ebc6 89bd
00000300: 201d 5841 cf18 5641 8424 05bd 958c 5741
00000310: 2627 963d 6a79 5641 9c79 5bbd 49bb 5541
00000320: 84b9 5741 5476 0b3d 9d09 5841 9514 5841
00000330: a038 043c 6644 5641 c03d 5741 32d1 bdbd
00000340: 5764 5641 71bd 5841 d3e9 5641 f08d 20bd
00000350: 08ad 5641 50d0 d2bd b709 5741 8074 05bc
00000360: 04e0 44bd e64d 5641 ad2e 5741 c722 95bc
00000370: b306 5641 15d9 5841 0999 e33c 3b48 5741
00000380: 4c5a 5841 1054 4b3b 8c3f 5541 38cd 5741
00000390: 1c18 5841 bb68 5641 ecaa 06bd 2eec f1bd
000003a0: 11b2 5641 a78f 5741 2b15 5841 94b4 623d
000003b0: 53eb 5541 d894 973d 68c4 e33c 38a6 f73d
000003c0: c073 f4bb 8185 5841 ea4d 5841 b217 fd3d
000003d0: e82d 5941 547a d43d c990 52bd 5286 5741
000003e0: e2e0 5641 5855 5741 58fb f83d 0265 d0bd
000003f0: d31f 5741 0098 273d 39f8 5641 1fc5 f63d
12.628787 12.761847 -0.12432881 12.728014 0.10667381 12.814981 -0.05105555 12.610969
12.766144 -0.081714466 12.6003895 12.765232 0.05089003 12.724189 12.768501 0.05756922
12.766968 12.778001 12.772575 0.032480963 12.697321 -0.07456532 12.773944 0.06774251
-0.073454686 12.5805 12.619247 0.09468792 12.692298 12.706531 0.034506395 12.60275
12.775881 0.117360376 12.684255 12.578012 12.69763 12.564485 0.06250158 0.11866066
12.607952 12.713824 12.5748415 0.06807947 12.66631 0.11468735 -0.025324464 0.041232377
0.08587451 12.824754 12.793159 0.003693387 12.70694 -0.028340697 0.06422823 12.700293
12.599241 12.7784605 0.12712899 -0.10454218 12.805195 0.11831279 12.60446 -0.08681795
13.134108 12.970449 -0.04033044 13.013522 -0.013284519 13.002413 -0.05269523 12.9640465
12.990656 0.07025893 13.035757 13.121011 -0.09619987 12.965693 12.935052 -0.05992198
12.9512415 12.947349 13.12565 -0.095430054 13.125159 -0.0021305978 13.03661 -0.10858239
0.11505195 13.077343 13.0863085 0.090367615 13.088737 13.0394 0.10729995 13.128261
13.034809 0.05976639 12.952511 12.94956 13.030149 13.116576 0.07590966 -0.10655539
13.127031 12.924901 12.9768095 -0.083662346 13.025058 -0.116102904 0.1243767 0.11746743
-0.034354642 12.988709 12.97404 -0.09529579 13.077366 0.04053873 -0.091387965 13.185389
13.14129 13.180746 -0.0671553 0.08290325 13.145203 0.10381691 13.0549345 -0.06493101
13.08564 13.16928 0.09463368 13.1826515 -0.10121527 13.112348 -0.08842212 13.055945
13.07885 -0.029208884 13.03308 13.256667 0.09574263 13.08317 13.126199 0.085191935
13.165346 13.142661 13.071846 -0.104143426 13.172235 -0.04785064 13.182969 -0.09416436
0.013494352 13.20351 13.236622 0.006965043 13.128401 13.004658 0.11795318 13.274253
13.247079 0.04857627 13.008976 13.145215 13.243331 13.155193 0.10134244 -0.019968638
13.058972 13.161024 13.178995 0.020272508 13.202225 0.0830517 0.121805 -0.047373295
-0.05029209 13.236289 13.016425 -0.030966327 13.022933 -0.053255454 0.061512444 13.102816
13.097516 13.14089 0.113732226 0.12226747 13.217607 0.10594413 13.2681675 -0.06727394
13.507111 13.381057 -0.032505527 13.471822 0.07331686 13.404642 -0.053582773 13.358224
13.482792 0.034048393 13.502347 13.505025 0.008070141 13.391699 13.452576 -0.092684165
13.399497 13.54625 13.432086 -0.039197862 13.417244 -0.10293639 13.439872 -0.008145452
-0.0480652 13.394018 13.448895 -0.01820506 13.376636 13.552999 0.027782934 13.455134
13.522045 0.0031025447 13.328014 13.487602 13.505886 13.400569 -0.032877848 -0.11812626
13.418473 13.472571 13.505168 0.055347994 13.369952 0.074014366 0.027803615 0.120922506
-0.0074600875 13.532594 13.519022 0.12358035 13.573708 0.10374895 -0.05140761 13.470293
13.429903 13.458336 0.12157315 -0.10175516 13.44527 0.040916443 13.435601 0.120493166

fc3.bias f4 [45]
00000000: 942e 3541 aaf7 3c41 5b1f 3441 45df 3a41
00000010: a4eb 3342 b215 5541 f634 4041 ce6b 3941
00000020: d8d4 4941 2ae8 4041 a2c5 3341 52f1 3441
00000030: 566b 3441 c9c1 5941 9f47 4e41 bbf0 4841
00000040: 0677 5b41 bb99 2d41 bb06 4341 dc95 3a41
00000050: 55ee 2a41 8b45 5041 9255 2941 e828 4041
00000060: 929a 3c41 7755 3641 5586 1541 9a88 5841
00000070: 3733 2f41 9acd 5641 f02e 2e41 e9fc 3241
00000080: e587 4641 454d 4a41 8c31 5e41 d3ca 2441
00000090: d279 6141 65d4 6a41 0861 5441 1036 6741
000000a0: a91d 4041 0bfb 4841 d8d1 5641 5b47 4541
000000b0: 3ee6 4c41
11.323872 11.810465 11.257655 11.679509 44.980118 13.317797 12.01293 11.5888195
12.614464 12.056681 11.23575 11.308916 11.276205 13.609811 12.892486 12.558772
13.716558 10.850032 12.189143 11.661587 10.683187 13.016978 10.583391 12.009987
11.787737 11.395865 9.345296 13.53335 10.950004 13.425196 10.886459 11.186746
12.408177 12.643865 13.887096 10.299518 14.092241 14.676854 13.273689 14.450699
12.007241 12.56129 13.426231 12.329921 12.806211
